[32m2021-03-30 06:46:36.093[0m | [1mINFO[0m | [90m/home/cappsb/Documents/GitHub/TOAD-GAN/mario/level_utils.py:75[0m | Tokens in level ['#', '-', 'H', 'e', '|']
Level_GeneratorConcatSkip2CleanAdd(
  (head): ConvBlock(
    (conv): Conv2d(5, 64, kernel_size=(3, 3), stride=(1, 1))
    (norm): BatchNorm2d(64, eps=1e-05, momentum=0.1, affine=True, track_running_stats=True)
    (LeakyRelu): LeakyReLU(negative_slope=0.2, inplace=True)
  )
  (body): Sequential(
    (block1): ConvBlock(
      (conv): Conv2d(64, 64, kernel_size=(3, 3), stride=(1, 1))
      (norm): BatchNorm2d(64, eps=1e-05, momentum=0.1, affine=True, track_running_stats=True)
      (LeakyRelu): LeakyReLU(negative_slope=0.2, inplace=True)
    )
  )
  (tail): Sequential(
    (0): Conv2d(64, 5, kernel_size=(3, 3), stride=(1, 1))
  )
)
Level_WDiscriminator(
  (head): ConvBlock(
    (conv): Conv2d(5, 64, kernel_size=(3, 3), stride=(1, 1))
    (norm): BatchNorm2d(64, eps=1e-05, momentum=0.1, affine=True, track_running_stats=True)
    (LeakyRelu): LeakyReLU(negative_slope=0.2, inplace=True)
  )
  (body): Sequential(
    (block1): ConvBlock(
      (conv): Conv2d(64, 64, kernel_size=(3, 3), stride=(1, 1))
      (norm): BatchNorm2d(64, eps=1e-05, momentum=0.1, affine=True, track_running_stats=True)
      (LeakyRelu): LeakyReLU(negative_slope=0.2, inplace=True)
    )
  )
  (tail): Conv2d(64, 1, kernel_size=(3, 3), stride=(1, 1))
)
[32m2021-03-30 06:46:41.185[0m | [1mINFO[0m | [90m/home/cappsb/Documents/GitHub/TOAD-GAN/train_single_scale.py:67[0m | Training at scale 0
  0%|          | 0/4000 [00:00<?, ?it/s]  0%|          | 1/4000 [00:00<15:19,  4.35it/s]  0%|          | 4/4000 [00:00<05:36, 11.87it/s]  0%|          | 7/4000 [00:00<04:17, 15.51it/s]  0%|          | 10/40
…
