[32m2021-03-07 15:27:58.774[0m | [1mINFO[0m | [90mC:\Users\kdste\Documents\GitHub\TOAD-GAN\mario\level_utils.py:75[0m | Tokens in level ['!', '#', '-', '1', '@', 'C', 'S', 'U', 'X', 'g', 'k', 't']
Level_GeneratorConcatSkip2CleanAdd(
  (head): ConvBlock(
    (conv): Conv2d(12, 64, kernel_size=(3, 3), stride=(1, 1))
    (norm): BatchNorm2d(64, eps=1e-05, momentum=0.1, affine=True, track_running_stats=True)
    (LeakyRelu): LeakyReLU(negative_slope=0.2, inplace=True)
  )
  (body): Sequential(
    (block1): ConvBlock(
      (conv): Conv2d(64, 64, kernel_size=(3, 3), stride=(1, 1))
      (norm): BatchNorm2d(64, eps=1e-05, momentum=0.1, affine=True, track_running_stats=True)
      (LeakyRelu): LeakyReLU(negative_slope=0.2, inplace=True)
    )
  )
  (tail): Sequential(
    (0): Conv2d(64, 12, kernel_size=(3, 3), stride=(1, 1))
  )
)
Level_WDiscriminator(
  (head): ConvBlock(
    (conv): Conv2d(12, 64, kernel_size=(3, 3), stride=(1, 1))
    (norm): BatchNorm2d(64, eps=1e-05, momentum=0.1, affine=True, track_running_stats=True)
    (LeakyRelu): LeakyReLU(negative_slope=0.2, inplace=True)
  )
  (body): Sequential(
    (block1): ConvBlock(
      (conv): Conv2d(64, 64, kernel_size=(3, 3), stride=(1, 1))
      (norm): BatchNorm2d(64, eps=1e-05, momentum=0.1, affine=True, track_running_stats=True)
      (LeakyRelu): LeakyReLU(negative_slope=0.2, inplace=True)
    )
  )
  (tail): Conv2d(64, 1, kernel_size=(3, 3), stride=(1, 1))
)
[32m2021-03-07 15:28:13.210[0m | [1mINFO[0m | [90mC:\Users\kdste\Documents\GitHub\TOAD-GAN\train_single_scale.py:65[0m | Training at scale 0
  0%|                                                                                         | 0/4000 [00:00<?, ?it/s]  0%|                                                                                 | 
…
